fp/data/lenet_weights.pkl (torch_old, 248662 bytes, 10 tensors)

conv1.0.weight f4 [6, 1, 5, 5]
0	0xbe90bee1	-0.2827063
1	0xbda64c10	-0.081199765
2	0x3e56ab25	0.20963724
3	0x3e1b11e4	0.15143543
4	0x3d041087	0.032242324
5	0xbed4c97c	-0.4155997
6	0xbebdbdec	-0.3705896
7	0x3de1201e	0.10992454
8	0x3e8c2c6f	0.2737765
9	0x3ec60c1d	0.38681117
10	0xbe29c586	-0.16579255
11	0xbd866445	-0.06562094
12	0xbe85c630	-0.26127768
13	0x3e2b7f41	0.16747762
14	0x3ed19f09	0.40941647
15	0xbe584a7c	-0.21122164
16	0xbdae15d7	-0.08500259
17	0xbe864869	-0.2622712
18	0x3dbe9739	0.09306187
19	0x3ee1e999	0.44123533
20	0xbda45b26	-0.08025198
21	0xbe9258aa	-0.2858327
22	0x3d378586	0.044805072
23	0x3cfae349	0.030625956
24	0x3ecefb21	0.4042597
25	0xbe03d540	-0.12874317
26	0xbe2aaec3	-0.16668229
27	0xbdd30353	-0.103033684
28	0x3d908b87	0.07057863
29	0x3d881f63	0.066466115
30	0x3d2eea41	0.04270387
31	0x3d1a141e	0.03761684
32	0x3e4d273b	0.20034496
33	0x3e3864a6	0.18007144
34	0xbde2fa7e	-0.11082934
35	0x3e0bdbc5	0.13658054
36	0xbe3ebe1d	-0.1862721
37	0xbe35b5a1	-0.17745067
38	0xbc8d29c4	-0.01723183
39	0x3d476ebb	0.048689585
40	0xbd4caee6	-0.049971484
41	0xbdcb27a3	-0.099196695
42	0xbd962e3f	-0.073330395
43	0x3db7ae5a	0.08968802
44	0xbe179a41	-0.14804937
45	0xbdb03f69	-0.086058445
46	0x3d34a659	0.044103954
47	0xbdd708d2	-0.10499729
48	0x3e3fda5a	0.18735638
49	0xbdb61f1e	-0.08892654
50	0xbd2130f0	-0.03935331
51	0x3e4f8062	0.20263818
52	0x3e935442	0.2877522
53	0x3ecb211e	0.39673704
54	0xbde7df9c	-0.11321947
55	0xbd9657ad	-0.073409416
56	0x3e8c8501	0.27445224
57	0x3f165aef	0.58732504
58	0x3f14dee9	0.58152634
59	0x3e33e3e5	0.17567404
60	0x3e10c79f	0.1413865
61	0x3edb1227	0.42787287
62	0x3ea354be	0.3190059
63	0x3e9f11e3	0.31068334
64	0x3d4b581f	0.049644586
65	0xbe71f5c4	-0.23628908
66	0x3ed6d210	0.4195714
67	0x3eefe0fa	0.4685133
68	0x3eb74b3d	0.3579959
69	0xbd62cb2b	-0.055369537
70	0xbebf1471	-0.37320283
71	0x3dad60ff	0.08465766
72	0x3df021d2	0.11725201
73	0x3e192afc	0.14957803
74	0xbe06e46f	-0.13173078
75	0x3d1351c6	0.035966657
76	0x3ecb82b0	0.39748144
77	0x3e83b771	0.25725892
78	0x3eda370f	0.4262013
79	0xbe71653b	-0.23573773
80	0x3e744016	0.23852572
81	0x3f2abf71	0.66698366
82	0x3ebf9b93	0.3742338
83	0x3e08315b	0.13300078
84	0x3da34c45	0.07973532
85	0x3eed4c58	0.46347308
86	0x3f0287ca	0.5098845
87	0x3e500585	0.20314606
88	0x3ec7e40e	0.3904118
89	0xbd8e9990	-0.069628835
90	0x3de1f71d	0.11033461
91	0x3ed81908	0.42206597
92	0xbd76caf7	-0.060252156
93	0x3e1540e0	0.14575529
94	0xbabd3b78	-0.0014437279
95	0x3e653186	0.22382173
96	0x3ebc0787	0.36724493
97	0x3ec8ca98	0.39217067
98	0x3e125bb4	0.14292794
99	0x3dba19d7	0.0908696
100	0x3f219075	0.6311105
101	0x3f4f2fef	0.80932516
102	0x3f1e2403	0.617737
103	0x3f23e633	0.6402313
104	0xbd513fc9	-0.05108622
105	0x3f3b1bc8	0.73089266
106	0x3ef49764	0.47771752
107	0x3ea1a4be	0.31571
108	0x3efb2d77	0.49058124
109	0xbed360a8	-0.4128468
110	0x3e8d66c8	0.27617478
111	0xbceb5f7b	-0.028732052
112	0xbd675432	-0.05647678
113	0xbdd5a611	-0.10432065
114	0xbf3df56c	-0.7420261
115	0xbdd03809	-0.10166938
116	0xbe5fab5a	-0.21842709
117	0xbf10f93e	-0.56630313
118	0xbf2357d3	-0.63805884
119	0xbf823fe6	-1.017575
120	0xbd047957	-0.03234228
121	0xbeb30127	-0.34961817
122	0xbf3b8891	-0.7325526
123	0xbf1a8ec1	-0.60374075
124	0xbf2ec38b	-0.68267125
125	0xbe89f8c0	-0.26947594
126	0xbeeb90ce	-0.46008915
127	0xbe8871b7	-0.26649258
128	0xbda3bad4	-0.07994619
129	0xbe1c633a	-0.15272227
130	0x3e2260da	0.15857258
131	0xbe8ffdca	-0.28123313
132	0xbf052aa8	-0.52018213
133	0xbe86ed33	-0.26352844
134	0x3dcca39c	0.099921435
135	0x3e1585dd	0.14601846
136	0xbe8bf1bd	-0.2733287
137	0xbf2292a9	-0.63505036
138	0xbf1756c3	-0.5911676
139	0xbed5a152	-0.4172464
140	0x3daac0bd	0.08337543
141	0x3e1e6e7c	0.15471834
142	0xbd369860	-0.04457891
143	0xbee9405b	-0.45556912
144	0xbec41485	-0.38296905
145	0x3e116144	0.1419726
146	0x3dd85dc2	0.10564758
147	0xbc58bf2d	-0.013229174
148	0xbcc20f86	-0.023689043
149	0xbedc6f6f	-0.43053767

conv1.0.bias f4 [6]
0	0xbdd42164	-0.10357931
1	0xbe3ecefd	-0.18633647
2	0xbf9d968f	-1.2311572
3	0xbfc922f1	-1.5713788
4	0x3f37bf78	0.71776533
5	0x3faa15bc	1.3287883

conv2.0.weight f4 [16, 6, 5, 5]
0	0x3d59b4c9	0.053150926
1	0x3d29113a	0.041276194
2	0xbdb56e61	-0.08858944
3	0x3d8b8b79	0.06813712
4	0xbbbdfdb3	-0.0057980656
5	0xbe144a10	-0.14481378
6	0xbe05452d	-0.1301467
7	0xbccd01a3	-0.025025195
8	0x3ce87348	0.028375283
9	0xbd230a05	-0.039804477
10	0xbdb7a0f8	-0.08966249
11	0xbe187711	-0.1488917
12	0xbd038b32	-0.03211517
13	0xbcb8e2f2	-0.022569153
14	0xbcd0ecad	-0.02550348
15	0xbcd708d4	-0.026249327
16	0xbda05e89	-0.07830531
17	0xbcbc5eb8	-0.022994384
18	0xbd221719	-0.03957281
19	0xbe1b4f36	-0.15166935
20	0xbd3e567f	-0.046469208
21	0xbdc904ac	-0.09815344
22	0x3d957c63	0.072991155
23	0x3c813e85	0.015776882
24	0xbda0ed87	-0.07857805
25	0x3d507800	0.05089569
26	0x3d033227	0.03203025
27	0xbd0fdf2d	-0.035124946
28	0x3c997d21	0.018736424
29	0xbc117684	-0.008878354
30	0x3d65d245	0.05610873
31	0xbd8d3b75	-0.06896106
32	0x3da724cd	0.08161316
33	0x3d96a7f1	0.07356251
34	0xb99c9985	-0.0002986902
35	0xbd8c6c32	-0.06856574
36	0xbd848326	-0.06470327
37	0xbbb737e5	-0.00559138
38	0xbd36c1ca	-0.044618405
39	0x3b1f17e1	0.0024275708
40	0xbc63fe02	-0.013915541
41	0x3ae1a50f	0.0017215329
42	0xbd9c6017	-0.07635515
43	0x3ca33b57	0.019925756
44	0xbcca4395	-0.024690429
45	0x3b93e016	0.004512797
46	0x3d896737	0.0670914
47	0xbd405081	-0.046951775
48	0x3d4d600a	0.050140418
49	0xbb3ec347	-0.0029108094
50	0xbde07c9d	-0.10961268
51	0x3e1008e8	0.14065897
52	0x3d7e0204	0.06201364
53	0x3d5a693a	0.053323008
54	0x3e924255	0.28566232
55	0x3d943fc9	0.072387286
56	0x3e2b855d	0.16750093
57	0x3dfbea6d	0.123005725
58	0x3dacba93	0.08434024
59	0x3ea31567	0.31852266
60	0xbd7b3627	-0.06133094
61	0xbdd961fe	-0.10614394
62	0xbe6f7923	-0.23386054
63	0xbe55fff7	-0.20898424
64	0x3cf928d7	0.030414982
65	0xbe35efb5	-0.17767222
66	0xbea6a759	-0.3254955
67	0xbea3d586	-0.31998843
68	0xbe6e47cf	-0.2326958
69	0xbde70cce	-0.11281739
70	0x3d96fa64	0.07371977
71	0x3c950ba1	0.018194022
72	0xbe68a0d3	-0.227176
73	0xbd8c4e66	-0.06850891
74	0xbe1ebfde	-0.15502879
75	0xbd0b82ce	-0.034060292
76	0x3e200bdb	0.15629523
77	0x3d81be76	0.06335156
78	0xbe03467d	-0.12819858
79	0x3ec73780	0.3890953
80	0x3dbb3058	0.0914008
81	0x3e61d663	0.22054438
82	0x3e4271c8	0.18988717
83	0x3bbc2383	0.005741538
84	0x3ebcc8da	0.36871988
85	0xbdec9caf	-0.115533225
86	0x3d03c00d	0.032165576
87	0xbe5bc1eb	-0.21460693
88	0xbe202617	-0.1563953
89	0xbd9d1c2d	-0.0767139
90	0xbe16670e	-0.1468775
91	0xbe858c52	-0.26083618
92	0xbef7dd14	-0.48410857
93	0xbe9e21f2	-0.30885273
94	0xbe423bc8	-0.18968117
95	0x3c3adfb1	0.011405871
96	0xbcbfe316	-0.023423713
97	0xbd21a99d	-0.039468396
98	0xbd2b0382	-0.041751392
99	0xbe64684a	-0.22305408
100	0xbed606c8	-0.4180205
101	0xbe882d4f	-0.26597068
102	0xbc01e4d5	-0.007928093
103	0xbebb1288	-0.36537576
104	0xbd26e191	-0.04074246
105	0xbde03ad4	-0.109487206
106	0x3d9d3c85	0.07677559
107	0x3ddb59e8	0.10710508
108	0xbdb59028	-0.08865386
109	0xbc0b18b4	-0.008489776
110	0x3e540f2e	0.20708916
111	0x3eda0f72	0.4258991
112	0x3e8b59f8	0.27217078
113	0x3e77e858	0.24209726
114	0x3df88c5c	0.121361464
115	0xbd313d84	-0.043271556
116	0x3c12f93a	0.008970553
117	0xbd394b7b	-0.045238
118	0x3cc87611	0.024470361
119	0xbc246a04	-0.010035042
120	0x3e80fa0f	0.2519078
121	0xbc0bf047	-0.008541173
122	0xbdf4420c	-0.1192666
123	0xbe1a53f6	-0.15071091
124	0xbd848dc7	-0.064723544
125	0x3b828866	0.003983545
126	0xbe569a28	-0.20957243
127	0xbe52f5a4	-0.20601517
128	0xbe617b1b	-0.22019617
129	0xbe1510c4	-0.14557177
130	0xbe762401	-0.24037172
131	0xbe7ebe6d	-0.24877329
132	0xbe468843	-0.19387917
133	0xbdc3145f	-0.0952537
134	0xbdf6beb9	-0.12048096
135	0xbdf32fec	-0.11874375
136	0xbdf879dd	-0.121326186
137	0xbb6c6d0a	-0.0036075735
138	0xbd266ccf	-0.04063111
139	0x3d055fa0	0.0325619
140	0x3e099ebe	0.13439462
141	0x3e81837e	0.25295633
142	0x3e07d701	0.13265611
143	0x3dbc0386	0.091803595
144	0x3e65e2b0	0.22449756
145	0x3d8347be	0.06410168
146	0x3e72b4ad	0.23701735
147	0x3e872cd9	0.26401404
148	0x3e3c60e1	0.18396331
149	0x3e8081da	0.2509907
150	0xbd035893	-0.032066893
151	0xbd5cf04a	-0.053940095
152	0x3db45202	0.08804704
153	0x3dfc22bb	0.12311312
154	0x3c231fc6	0.009956306
155	0xbdb9c8f1	-0.0907153
156	0xbd22877d	-0.039679993
157	0x3ce2b8d1	0.027676018
158	0x3e37bef7	0.17943941
159	0x3d925d5a	0.07146712
160	0x3d89382e	0.067001686
161	0x3d1c01f8	0.038087815
162	0xbcc8991f	-0.024487076
163	0x3d157fe9	0.036498938
164	0x3d862b0f	0.065511815
165	0xbc015122	-0.007892879
166	0xbd372c17	-0.04471978
167	0xbda0b2f9	-0.07846636
168	0x3ae32f82	0.0017332884
169	0xbc9185cb	-0.017763993
170	0xbcc2bd1c	-0.023771815
171	0xbcb84a21	-0.022496285
172	0xbd7f2268	-0.06228867
173	0xbd05b193	-0.03264005
174	0x3df68402	0.12036897
175	0x3d5c9e84	0.05386211
176	0xbd130d00	-0.03590107
177	0xbd426c9c	-0.04746686
178	0xbc21e90c	-0.009882223
179	0xbd0bb544	-0.034108415
180	0x3d81c43d	0.063362576
181	0xbd85ad0d	-0.065271474
182	0xbc333810	-0.010938659
183	0xbd4ea367	-0.0504488
184	0x3ca20bb3	0.01978097
185	0x3cc71c46	0.024305474
186	0xbd9dacc7	-0.0769897
187	0x3c1f50fc	0.009723898
188	0x3d2f883b	0.04285453
189	0xbd25837e	-0.040408604
190	0xbcddd3d1	-0.027078541
191	0x3d83215f	0.064028494
192	0xbb082f9d	-0.0020780333
193	0xbc5abfda	-0.013351405
194	0x3d991299	0.0747425
195	0xbd971041	-0.07376147
196	0x3d97133e	0.07376717
197	0xbb06e04d	-0.002058047
198	0xbda6ef7d	-0.081511475
199	0x3c86ac80	0.016439676
200	0xbe0f9228	-0.14020598
201	0x3cdc9ab3	0.026929235
202	0xbe4cf4c3	-0.20015244
203	0xbdbc0492	-0.09180559
204	0x3e6a6a12	0.22892025
205	0xbd0f63a8	-0.03500715
206	0x3de13afd	0.10997579
207	0xbe89e834	-0.2693497
208	0xbde587dc	-0.11207554
209	0x3e67e1c1	0.22644712
210	0x3e00aaeb	0.125652
211	0x3e7357d7	0.23763977
212	0x3b2258ee	0.0024772245
213	0xbe75a8b7	-0.23990141
214	0x3e2c4fb0	0.16827273
215	0x3e1a846a	0.15089574
216	0x3dedd723	0.116133
217	0xbc822f71	-0.015891762
218	0xbe863e6d	-0.26219502
219	0xbddfd468	-0.10929185
220	0x3e25db1f	0.1619687
221	0x3e8756f2	0.26433522
222	0xbd453fb5	-0.04815646
223	0xbec6dc9a	-0.3884018
224	0xbe762b2e	-0.24039909
225	0xbde7ecb3	-0.11324444
226	0x3d7a1774	0.061057523
227	0xbe96bdcf	-0.29441687
228	0xbe6234a3	-0.22090392
229	0x3e7864f4	0.2425726
230	0x3d29b0c7	0.041428354
231	0x3e5ff467	0.21870576
232	0xbe1a7ef9	-0.15087499
233	0xbec39102	-0.3819657
234	0x3e3e7112	0.1859782
235	0x3d8988c9	0.06715543
236	0x3e72c3e5	0.2370754
237	0xbb5ca58a	-0.0033668005
238	0xbe8fd5f2	-0.28092915
239	0x3d00eea1	0.031477574
240	0x3d1837a0	0.037162423
241	0x3e8cfd55	0.27537027
242	0x3d341105	0.043961544
243	0xbec6975c	-0.38787353
244	0xbe8e37ae	-0.27776855
245	0x3e126fd2	0.14300469
246	0x3eb199aa	0.3468755
247	0x3e01080a	0.12600723
248	0xbec09ede	-0.37621206
249	0xbefb9e2d	-0.49144116
250	0xbe7d093c	-0.24710554
251	0xbc99d97d	-0.018780464
252	0x3e4c341b	0.19941752
253	0xbc6d0d82	-0.014468553
254	0xbd963971	-0.07335175
255	0xbecb49ee	-0.3970484

conv2.0.bias f4 [16]
0	0xbe00a6ac	-0.1256358
1	0xbe79d3a8	-0.24397147
2	0xbe1fae5c	-0.15593857
3	0xbea7357d	-0.32657996
4	0xbdecdbc3	-0.11565354
5	0xbed4426c	-0.41456926
6	0x3d3f3df0	0.046689928
7	0xbc24e9ec	-0.010065537
8	0xbb99f926	-0.0046988903
9	0xbdc64d1c	-0.09682676
10	0xbe4544f8	-0.1926459
11	0xbe0ecea1	-0.1394601
12	0x3e3aff90	0.18261552
13	0xbe1b35fd	-0.15157314
14	0xbc70e376	-0.014702668
15	0xbe51297c	-0.20425981

fc1.0.weight f4 [120, 400]
0	0x3cb4da19	0.022076653
1	0x3c7c8d80	0.015414596
2	0xbccbd936	-0.024883848
3	0xbc002fb5	-0.007823874
4	0x3d11793a	0.035516
5	0xbb1fb277	-0.0024367848
6	0x3c9a6736	0.018848043
7	0x3d720fb6	0.059097014
8	0xbbf2f5c2	-0.0074145505
9	0xbc606f86	-0.013698464
10	0xbb2b4316	-0.0026132516
11	0xbab5409c	-0.0013828459
12	0xbb854a3f	-0.0040676887
13	0xbd3a493d	-0.04548
14	0xbc91ae23	-0.01778323
15	0xbd1df612	-0.03856475
16	0x3bef9ffd	0.0073127733
17	0xbb71797a	-0.0036846087
18	0xbd04155a	-0.032246925
19	0xbd0c3fe1	-0.034240607
20	0xbd358a31	-0.044321243
21	0x3cd2f680	0.025752306
22	0xbcff36a8	-0.031153992
23	0x3ceae1c1	0.028672101
24	0x3d4e64c4	0.050389066
25	0xbcf4e0b1	-0.029892297
26	0xbc163dd4	-0.009170014
27	0xbc610188	-0.013733275
28	0x3c70f6f0	0.014707312
29	0xbd3a4bbc	-0.045482382
30	0xbbf0225d	-0.007328315
31	0x3cef0a55	0.029179731
32	0xbcaf3280	-0.021386385
33	0xbd82574f	-0.06364309
34	0xbbaa00a3	-0.005188064
35	0xbd13597b	-0.035974007
36	0xbcf673a6	-0.030084442
37	0xbc6baf7b	-0.0143850995
38	0xbd4608a5	-0.048348088
39	0xbd2c1879	-0.042015526
40	0x3d25d79b	0.04048882
41	0xbc76dc90	-0.015067235
42	0x3d8e8318	0.06958598
43	0x3c403090	0.011730328
44	0xbd3b93a0	-0.045795083
45	0xbc79739a	-0.0152253155
46	0xbd15e0db	-0.036591392
47	0xbc176f24	-0.009242807
48	0x3c30ac7d	0.010783312
49	0xbc955d9e	-0.018233117
50	0xbd92b9a6	-0.07164316
51	0xbcf1a13a	-0.029495824
52	0xbcdbb15c	-0.02681797
53	0x3be8589e	0.007090642
54	0xbd466156	-0.04843267
55	0xbd8b081c	-0.06788656
56	0xbd54d87f	-0.05196428
57	0xbd0f95f6	-0.035055123
58	0x3c9477ac	0.01812347
59	0xbd12dfbb	-0.035857897
60	0xbd06e12b	-0.03292958
61	0x3d2c4394	0.042056635
62	0x3da7a4ec	0.08185753
63	0xbc6c846b	-0.014435868
64	0x3dc0b214	0.09408966
65	0xbd25362d	-0.04033487
66	0xbbcc0cfe	-0.0062271347
67	0x3bee8e89	0.007280175
68	0x3d340b24	0.043955937
69	0x3d47e246	0.048799776
70	0xbc1fc292	-0.009750979
71	0xbd278da9	-0.040906582
72	0x3d296a84	0.041361347
73	0xbca3e9d0	-0.020008951
74	0xbcb77d04	-0.02239848
75	0x3a77929e	0.000944415
76	0x3d346afe	0.04404735
77	0x3d3c7de8	0.04601851
78	0x3d0c4ea1	0.034254674
79	0xba2f5a00	-0.0006689131
80	0xbc4d894c	-0.012544941
81	0x3cc567a4	0.024097271
82	0x3cedbd00	0.029020786
83	0xbd0321be	-0.0320146
84	0x3c93e256	0.018052261
85	0x3d3326cc	0.04373817
86	0xbc2836ab	-0.01026694
87	0x3ce4784e	0.027889397
88	0xbbb0c64e	-0.0053947335
89	0x3c201d2e	0.009772582
90	0xbc433673	-0.011914837
91	0xbd14e7d5	-0.036353905
92	0xbd3182d2	-0.04333765
93	0xba6192e0	-0.0008604955
94	0xb89eea44	-7.5776625e-05
95	0x3b33d99e	0.0027442942
96	0x3d684446	0.056705736
97	0x3c96a404	0.018388756
98	0xbce6d881	-0.028179409
99	0xbcd73a81	-0.026273014
100	0xbd288602	-0.041143425
101	0x3d41aaac	0.047281906
102	0xbc9bfcb0	-0.01904139
103	0x3d24626f	0.040132936
104	0x3d18c087	0.037292983
105	0xb9e90558	-0.00044445205
106	0x3d1c6be7	0.03818884
107	0xbcf5392a	-0.029934485
108	0xbced53e1	-0.02897066
109	0xbd1791bf	-0.03700423
110	0xbcd7c11e	-0.026337203
111	0xbcccdd06	-0.025007736
112	0x3d7b512a	0.0613567
113	0x3cf766ff	0.03020048
114	0x3cf4cef9	0.029883849
115	0xbd4f0fc2	-0.050552137
116	0x3d4a4f49	0.04939202
117	0x3c96d45d	0.01841181
118	0x3cb90e90	0.022589952
119	0x3ced822c	0.028992735
120	0xbd3056c3	-0.043051492
121	0xbca01a8e	-0.019543912
122	0x3d260a8b	0.0405374
123	0xbd565772	-0.052329488
124	0xbd76a8d7	-0.060219612
125	0xbbd079e5	-0.006362187
126	0xbcffa3e3	-0.031206077
127	0x3cb44dee	0.022009816
128	0x3d5e3de9	0.05425826
129	0xbb195bc9	-0.0023400655
130	0xbd938be1	-0.07204414
131	0xbc0d95a0	-0.00864163
132	0x3bd056c9	0.006358002
133	0xbb4b9d2f	-0.003106903
134	0xbd1a04bc	-0.03760217
135	0xbcb23dfe	-0.021758076
136	0xbd40f05b	-0.04710422
137	0xbd8962e8	-0.06708318
138	0xbd835675	-0.06412975
139	0x3ce13d2f	0.027494995
140	0x3c9dcf2e	0.01926383
141	0x3ce59fde	0.028030332
142	0x3c8aec18	0.016958281
143	0xbd34a1cc	-0.044099614
144	0xbd2a4e9c	-0.041578874
145	0x3d40f245	0.047106046
146	0xb967bca9	-0.00022100158
147	0x3d8d6606	0.06904225
148	0xbb93cd42	-0.0045105526
149	0xbae4e4e4	-0.0017463234
150	0x3affd7eb	0.0019519305
151	0x3cd406c6	0.025882136
152	0xbcc46bff	-0.023977278
153	0x3d4086e8	0.047003657
154	0x3d24fee5	0.04028215
155	0x3c9cf6c3	0.019160634
156	0x3d01927e	0.031633846
157	0xbcce1278	-0.025155291
158	0xbcc55c65	-0.024091909
159	0x3c1e26ea	0.0096528325
160	0xbd2d469e	-0.042303674
161	0xbbc435dd	-0.0059878663
162	0xbca68b5a	-0.02033012
163	0x3c29aba7	0.0103558665
164	0x3d2c070c	0.041998908
165	0xbd3108a5	-0.043221135
166	0xbd519878	-0.051170796
167	0x3a9636da	0.0011460439
168	0x3ce7ef7c	0.028312437
169	0x3cb51304	0.022103794
170	0x3c78ef0c	0.015193712
171	0xbca56f53	-0.020194685
172	0xbcd90dcc	-0.026495837
173	0xbcebcbd6	-0.02878372
174	0xbc001875	-0.007818331
175	0xbc47da04	-0.012197975
176	0x3cf3b3d2	0.029748831
177	0x3d2773ea	0.04088203
178	0xbc9d80ae	-0.019226398
179	0x3d5c0096	0.053711496
180	0x3d0cce0e	0.034376197
181	0xbce0ce54	-0.027442135
182	0xbd201e71	-0.03909153
183	0x3d2077f5	0.0391769
184	0x3c78b9e9	0.015181043
185	0xbc75a97a	-0.01499402
186	0x3d2c3b41	0.042048696
187	0xbcc96b2d	-0.024587238
188	0x3c8c840f	0.017152814
189	0xbd52a3c1	-0.0514257
190	0xbcf4d33d	-0.029885883
191	0x3cb1810b	0.021667978
192	0xbd173dd2	-0.03692419
193	0xbd11cecf	-0.03559762
194	0x3d05c303	0.03265668
195	0xbb9139c5	-0.0044319355
196	0xbceca6ff	-0.028888224
197	0xbcd2ddac	-0.025740467
198	0x3cd65a63	0.026166147
199	0x3d402b60	0.046916366
200	0xbb59dfc4	-0.0033244947
201	0xbd05a086	-0.03262379
202	0x3d0808a4	0.033211365
203	0xbae0e1aa	-0.0017157097
204	0x3cdff785	0.027339706
205	0x3d11a00a	0.035553016
206	0x3c5e0324	0.0135505535
207	0xbcc8fa8f	-0.024533538
208	0xbbc71e5f	-0.0060766186
209	0x3d2372e8	0.039904505
210	0x3c414fed	0.011798841
211	0x3d1b857c	0.037969097
212	0xbd1a4ac7	-0.03766897
213	0xbd4f9af6	-0.05068489
214	0xbd6d318f	-0.05790859
215	0x3cbf7ff2	0.023376439
216	0x3c0b525f	0.0085035255
217	0x3b97b87d	0.004630147
218	0x3d117048	0.03550747
219	0x3c821f10	0.015883952
220	0x3cf7c048	0.030243054
221	0xbc67890b	-0.014131795
222	0x3aedd78b	0.0018145902
223	0x3c11594b	0.008871387
224	0xbd19f9f4	-0.03759189
225	0xbcddd428	-0.027078703
226	0xbdbc1207	-0.09183126
227	0x3daa640a	0.08319862
228	0x3d32a813	0.04361732
229	0x3d1fb0bd	0.03898691
230	0xbd14ccdd	-0.036328185
231	0xbd7571db	-0.059923034
232	0x3bf2856d	0.0074011595
233	0x3c5eaa26	0.013590371
234	0xbc2e2a45	-0.010630195
235	0xbd08e761	-0.033423785
236	0x3d5d2075	0.05398603
237	0xbc02393c	-0.007948216
238	0xbd06201a	-0.03274546
239	0xbd45b77d	-0.04827069
240	0xbd5bfef3	-0.053709935
241	0x3bc11af0	0.005893104
242	0x3be6b72c	0.0070408788
243	0xbd8e7707	-0.069562964
244	0xbc5fe6d1	-0.013665871
245	0xbbc65103	-0.006052138
246	0x3c1c157e	0.0095266085
247	0xbda5637a	-0.08075614
248	0xbd09ee2d	-0.033674408
249	0xbb69c979	-0.0035673066
250	0xbd0db741	-0.034598593
251	0x3cd253aa	0.02567466
252	0xbd0427fd	-0.0322647
253	0xbcad68ed	-0.021168197
254	0xbcaffc4e	-0.021482613
255	0x3c163545	0.009167974

fc1.0.bias f4 [120]
0	0x3d88c27f	0.06677722
1	0x3c46b9c4	0.012129251
2	0xbdaf2921	-0.085527666
3	0xbd791fff	-0.06082153
4	0x3d93aec6	0.0721107
5	0x3dcc866b	0.09986576
6	0xbd337438	-0.043812007
7	0x3d3dde07	0.04635432
8	0x3de9aedf	0.11410307
9	0xbe396574	-0.18105108
10	0xbe0ab768	-0.13546526
11	0xbd233a42	-0.03985048
12	0x3d824cf9	0.063623376
13	0x3e08967d	0.13338657
14	0x3b669553	0.003518422
15	0xbe042365	-0.12904127
16	0xbdd6a801	-0.10481263
17	0xbd0fb745	-0.03508689
18	0x3dd53ce9	0.10412008
19	0xbd088f8f	-0.033340033
20	0xbe08d73f	-0.1336336
21	0x3defbaa2	0.11705519
22	0xbcbd4eb4	-0.023108818
23	0x3dac990a	0.084276274
24	0x3d2c61d1	0.042085472
25	0xbd160b2f	-0.03663176
26	0xbbdaf082	-0.006681503
27	0xbc65a443	-0.014016214
28	0x3d9978c6	0.07493739
29	0x3cbd7903	0.023128992
30	0x3de9ec4c	0.11422023
31	0xbdcfc32c	-0.10144648
32	0xbe1de2be	-0.15418527
33	0x3c9e5b69	0.019330697
34	0x3c98ea96	0.018666547
35	0x3dbcb210	0.0921365
36	0x3d93e1c0	0.07220793
37	0x3dce6b18	0.1007902
38	0x3d571297	0.052507963
39	0x3c9e1c3e	0.019300576
40	0xb7d3ddad	-2.5256386e-05
41	0xbdda3fb1	-0.106566794
42	0x3d4576ec	0.048209116
43	0x3d2d8d63	0.042371165
44	0xbe225242	-0.15851691
45	0x3d0a058a	0.03369669
46	0x3d1e698b	0.038674872
47	0xbb4e23ba	-0.00314544
48	0xbc323554	-0.010876972
49	0xbadc4937	-0.0016806488
50	0x3da161e5	0.0788
51	0x3dc60abf	0.096700184
52	0x3d47db36	0.04879304
53	0xbbfee781	-0.0077790623
54	0xbdbc7a08	-0.09202963
55	0x3d24b89e	0.040215127
56	0xbe1451b0	-0.14484286
57	0x3c9e7d19	0.01934676
58	0xbda51061	-0.08059765
59	0x3e116b62	0.1420112
60	0xbd0df72a	-0.034659542
61	0x3e17bb0b	0.14817445
62	0x3daf82e2	0.08569886
63	0xbd8cbee2	-0.068723455
64	0xbbf5f970	-0.007506542
65	0xba92acbf	-0.0011190398
66	0x3d9359a0	0.07194829
67	0xbd654a34	-0.05597897
68	0xbdb44705	-0.088026084
69	0x3ca42c24	0.02004058
70	0x3d9727f8	0.0738067
71	0xbd97e709	-0.07417113
72	0x3dee1394	0.11624828
73	0xbdce3d8b	-0.10070332
74	0xbd465b8b	-0.048427146
75	0xbc7207f5	-0.014772405
76	0x3e3909bd	0.18070121
77	0xbc805c34	-0.015668966
78	0x3dd82593	0.10554042
79	0xbd4f806a	-0.050659575
80	0x3db758bf	0.08952474
81	0xbda3bd95	-0.07995144
82	0x3c55ebab	0.013056676
83	0xbc900fc2	-0.017585639
84	0xbe0d33db	-0.13789313
85	0xbd8c48fd	-0.06849859
86	0x3e18000c	0.14843768
87	0x3ce62ceb	0.02809759
88	0x3e3bc665	0.183374
89	0xbde00caa	-0.109399155
90	0xbdb6aa0b	-0.08919152
91	0x3d503ad2	0.050837345
92	0x3bffb04c	0.0078029986
93	0x3caa2e79	0.020774113
94	0x3c290341	0.010315717
95	0xbe118775	-0.14211829
96	0x3e1c3a29	0.15256561
97	0xbde413db	-0.111366
98	0xbca15f39	-0.019698726
99	0x3d5442f3	0.05182166
100	0xbcba2fb4	-0.022727825
101	0x3d99235c	0.074774474
102	0x3e8e587d	0.27801886
103	0x3d45dacf	0.048304375
104	0x3dee8ad9	0.11647577
105	0x3cade65a	0.021228004
106	0x3b353b7a	0.002765386
107	0xbdd95993	-0.10612788
108	0xbd0a3161	-0.033738498
109	0x3c8d3afa	0.017240036
110	0x3d9f7718	0.07786387
111	0xbda21ed8	-0.07916039
112	0x3d3033e4	0.043018237
113	0x3d5af081	0.05345202
114	0xbd5111f4	-0.051042512
115	0x3de0af95	0.109709896
116	0x3daa75cd	0.0832325
117	0xbca0dd1a	-0.01963668
118	0xbbb2251e	-0.0054365536
119	0xbdc62810	-0.0967561

fc2.0.weight f4 [84, 120]
0	0x3c169ff2	0.009193407
1	0xbcc7e228	-0.024399832
2	0x3df902fd	0.12158773
3	0x3b0e48b1	0.0021710808
4	0xbd99c889	-0.07508952
5	0x3de5033d	0.11182258
6	0xbdb24ad8	-0.087056816
7	0x3bdf22e5	0.0068095797
8	0x3d5b8a3b	0.053598624
9	0x3d88cf48	0.06680161
10	0xbd692a35	-0.056925017
11	0xbd2d4a89	-0.04230741
12	0xbdcd2b15	-0.10017983
13	0x3da3beb7	0.0799536
14	0xbd5fae22	-0.054609425
15	0x3d7910ec	0.060807154
16	0x3d325ce5	0.043545622
17	0x3d2668cf	0.040627297
18	0xbc88c6d3	-0.01669637
19	0x3d4f9773	0.050681543
20	0xbcb086cf	-0.021548657
21	0xbd956493	-0.07294574
22	0x3cade621	0.021227898
23	0x3dcdab86	0.10042481
24	0x3d041be3	0.032253157
25	0x3d5656c8	0.052328855
26	0x3ceb9709	0.028758543
27	0xbda4936b	-0.0803593
28	0x3d0cd2f5	0.03438087
29	0x3df5058a	0.11963947
30	0xbcc15f49	-0.023605006
31	0x3caf5434	0.021402456
32	0xbd51ad37	-0.05119058
33	0x3d636c11	0.055522982
34	0x3d0f6288	0.035006076
35	0x3d6ec180	0.058290005
36	0xbce0bb2f	-0.027433006
37	0xbdd86667	-0.10566407
38	0x3cc0b765	0.02352495
39	0x3b2a5b75	0.0025994454
40	0x3d8b3834	0.06797829
41	0x3ce1be82	0.027556662
42	0xbd8cf72b	-0.06883081
43	0xbc14840f	-0.009064688
44	0x3b2e002c	0.0026550395
45	0xbca9d9d5	-0.020733753
46	0x3d3eaf83	0.0465541
47	0x3ca91399	0.020639228
48	0xbd00f2be	-0.031481497
49	0xbdb176e5	-0.086652555
50	0x3b3899fe	0.0028167958
51	0x3dcafd0a	0.099115446
52	0xbd433885	-0.047661323
53	0xbdbd9fb7	-0.09258979
54	0x3d8bc15e	0.06823991
55	0x3c7f098e	0.015566243
56	0x3cab71e5	0.020928333
57	0x3d640e94	0.055677965
58	0x3d4765aa	0.04868094
59	0x3dc42c14	0.0957872
60	0xbbc1d9d6	-0.0059158606
61	0xbc99c825	-0.018772194
62	0xbc7499ef	-0.014929279
63	0x3ce115cc	0.027476214
64	0x3df222cc	0.11823043
65	0x3d1c26c7	0.03812292
66	0x3bb6b19b	0.0055753714
67	0xbd4dd86a	-0.050255217
68	0x3cf20a33	0.029545879
69	0xbbc2ae4d	-0.0059411884
70	0xbd6920ec	-0.056916162
71	0xbd25e865	-0.04050483
72	0x3bd9403a	0.006629971
73	0xbc9a162b	-0.018809399
74	0xbdaf8ea0	-0.085721254
75	0x3d162762	0.036658652
76	0x3c813112	0.015770469
77	0xbdabc246	-0.08386664
78	0xbd283341	-0.041064505
79	0xbd90eae5	-0.070760526
80	0xbdc551a8	-0.09634715
81	0x3d16b52c	0.036793873
82	0x3d55b88c	0.05217795
83	0x3d8d91a7	0.069125466
84	0xbc9f4fe3	-0.019447273
85	0x3da15de0	0.07879233
86	0xbcd70cd3	-0.026251232
87	0xbd1fc209	-0.039003406
88	0x3d85f076	0.06540005
89	0xbcb6def7	-0.022323115
90	0x3d919459	0.07108373
91	0x3d9576ed	0.07298074
92	0x3d1467f9	0.03623197
93	0xbccc4ca9	-0.024938898
94	0x3d564b75	0.052318055
95	0xbd27f511	-0.041005198
96	0x3d6f5995	0.05843504
97	0xbd2e2700	-0.042517662
98	0x3c7fb765	0.0156076895
99	0x3d593c8d	0.05303626
100	0xbcf52e6b	-0.02992936
101	0xbd02bea5	-0.031920094
102	0x3d4dd3ca	0.050250806
103	0xbdbf4088	-0.0933848
104	0xbd2a2bb7	-0.041545596
105	0x3cc91d18	0.024550006
106	0x3db43490	0.08799088
107	0xbd8b2ec0	-0.06796026
108	0x3d5c1f5d	0.053740848
109	0x3d2266e5	0.03964891
110	0x3a70adab	0.0009181152
111	0x3d08f667	0.033438113
112	0x3dbd142f	0.09232365
113	0xbbb3fc54	-0.0054927263
114	0x3c9ba73d	0.019000644
115	0xbbcd3f73	-0.0062636673
116	0xbd455235	-0.0481741
117	0xbcf39fff	-0.029739378
118	0xbd0b7a57	-0.03405222
119	0xbd23a64b	-0.03995351
120	0xbd29b87f	-0.041435715
121	0xbc9185a6	-0.017763924
122	0xbe0e526a	-0.13898626
123	0xbce6fe1c	-0.02819734
124	0x3d6abd2a	0.057309307
125	0xbdb3d3ee	-0.08780657
126	0x3c25d80e	0.010122312
127	0x3d1b59a1	0.037927274
128	0x3d9038e0	0.07042098
129	0xbd96885f	-0.073502295
130	0xbd0a18a0	-0.03371489
131	0xbc1a51fa	-0.009418959
132	0xbcee1066	-0.029060554
133	0x3dd6f213	0.10495391
134	0xbcd87efc	-0.026427738
135	0xbd26e6be	-0.040747397
136	0x3b0fec5c	0.002196095
137	0xbde591ff	-0.11209487
138	0x3db2e18b	0.08734425
139	0xbd444a55	-0.04792245
140	0xbd52a2cc	-0.051424786
141	0xbc331fa6	-0.010932839
142	0x3d8ae0b3	0.06781139
143	0xbcbd91c3	-0.023140794
144	0x3d1496d9	0.036276672
145	0xbd9d3232	-0.076755896
146	0xbdbf4400	-0.09339142
147	0x3ba5cf63	0.005060123
148	0x3d52e43c	0.051487193
149	0x3b98fa99	0.0046685454
150	0xbc19efad	-0.009395522
151	0xbdf050d2	-0.11734165
152	0x3dc547a8	0.09632808
153	0xbb8d8127	-0.0043183747
154	0x3ccb32df	0.02480453
155	0x3d881370	0.066443324
156	0x3c811d49	0.015761035
157	0x3dbfc651	0.09363998
158	0x3d956bf1	0.07295979
159	0x3d9780d4	0.07397619
160	0x3d13874c	0.0360177
161	0x3d12d726	0.035849713
162	0x3db2304a	0.08700617
163	0x3ce4b6f5	0.027919272
164	0xbc659174	-0.0140117295
165	0x3d15dc4e	0.036587052
166	0x3c224cab	0.009905974
167	0x3d3f3523	0.046681534
168	0x3d95d9c6	0.073169276
169	0x3cb491ea	0.022042233
170	0xbd929046	-0.07156424
171	0xbc217bfb	-0.009856219
172	0x3d195e5f	0.037443515
173	0x3d84bf62	0.06481816
174	0x3da729bb	0.08162256
175	0xbd11b343	-0.035571348
176	0xbd474d94	-0.04865797
177	0xbd5673b4	-0.052356437
178	0xbd8fc3e9	-0.07019789
179	0x3da3ebd3	0.08003964
180	0xbd887161	-0.0666225
181	0x3c46ab68	0.012125827
182	0x3d9b4d25	0.075830735
183	0x3cc72614	0.02431015
184	0xbe018cd5	-0.1265138
185	0xbc68a1b9	-0.014198714
186	0x3c85dfe8	0.016342118
187	0x3d915017	0.07095354
188	0x3c4114da	0.011784757
189	0x3cf90e18	0.030402228
190	0x3c75a037	0.0149918115
191	0xbd9cd7df	-0.07658362
192	0xbd85a117	-0.06524866
193	0x3c7cf564	0.015439365
194	0x3ca792af	0.020455686
195	0xbdb2bdc8	-0.08727604
196	0x3d209be0	0.039211154
197	0xbd2a4376	-0.041568242
198	0x3d18e995	0.037332136
199	0xbd4264d6	-0.047459446
200	0x3db841e1	0.089969404
201	0xbd89bf8f	-0.0672599
202	0xbc790a94	-0.015200276
203	0x3d546e17	0.051862802
204	0xbb831a88	-0.0040009655
205	0xbd178652	-0.036993332
206	0xbb8a3117	-0.0042172777
207	0xbd5622ac	-0.05227916
208	0x3d9569a8	0.07295543
209	0x3d3fe1a3	0.046846043
210	0xbd8ab7c0	-0.06773329
211	0xba25b3b4	-0.00063210283
212	0x3d7a2923	0.061074387
213	0x3d71890b	0.058968585
214	0x3d3a0d77	0.045422997
215	0x3d9e0db7	0.0771746
216	0xbd529703	-0.051413547
217	0xbd9a8fcf	-0.075469606
218	0xbe09c09c	-0.13452381
219	0x3c83f939	0.01611005
220	0x3d038000	0.032104492
221	0xbd67f974	-0.05663438
222	0x3d348c1d	0.044078935
223	0x3d674849	0.05646542
224	0xbca68437	-0.020326717
225	0xbd9d5663	-0.076824926
226	0xbc2ced10	-0.010554567
227	0xbdabfbfe	-0.08397673
228	0x3d0bc142	0.034119852
229	0xbd9f1b9b	-0.07768937
230	0xbaa706bf	-0.0012743099
231	0x3d5b20dd	0.053498138
232	0xbd93e699	-0.072217174
233	0x3d860d55	0.06545512
234	0xbdca6677	-0.09882825
235	0xbda62c57	-0.08113926
236	0x3bd244b0	0.0064168796
237	0x3c09f2f0	0.008419737
238	0x3db3954c	0.087687105
239	0xbdbb6633	-0.09150352
240	0x3d1d9b45	0.038478155
241	0x3e023e0b	0.1271898
242	0x3cfad807	0.030620588
243	0x3c006215	0.007835885
244	0x3dde3cde	0.10851453
245	0xbc7b0587	-0.015321142
246	0x3d893732	0.06699981
247	0xbdd771fd	-0.105197884
248	0x3a597dd0	0.00082966406
249	0xbd6cecee	-0.05784314
250	0xbd3f66c0	-0.04672885
251	0xbc194a5b	-0.009356107
252	0x3e0c5786	0.13705263
253	0x3dc0b9f0	0.09410465
254	0x3db2bf22	0.08727862
255	0xbd7c53c4	-0.061603323

fc2.0.bias f4 [84]
0	0x3da0cda8	0.07851726
1	0x3d3131ed	0.043260504
2	0x3d87c507	0.06629377
3	0x3e151862	0.14560083
4	0x3e55da5d	0.2088408
5	0xbd1758f6	-0.036950074
6	0x3d6f0370	0.058352888
7	0x3e07a7e1	0.13247634
8	0xbd01f137	-0.03172418
9	0xbd953088	-0.07284647
10	0xbd953302	-0.072851196
11	0xbc3df86b	-0.011594872
12	0x3e1aeefc	0.15130228
13	0x3d0232c8	0.03178671
14	0x3d8946f6	0.06702988
15	0xbdc41fd4	-0.09576383
16	0xbd61e2f8	-0.055148095
17	0xbb4e90d2	-0.0031519425
18	0xbd450c07	-0.048107173
19	0xbda44ee3	-0.08022859
20	0xbdbe3f45	-0.092894115
21	0x3c9b6b31	0.018972011
22	0x3b2f6563	0.0026763312
23	0x3e8afb35	0.2714478
24	0xbd8214fc	-0.06351659
25	0x3d6f98eb	0.058495443
26	0x3e0f01c1	0.13965513
27	0x3eca340f	0.39492843
28	0x3da1a778	0.0789327
29	0xbd5bf8d4	-0.053704098
30	0xbcae6075	-0.021286229
31	0xbdc4d846	-0.096115634
32	0x3d605142	0.054764993
33	0x3e1c1a4d	0.15244408
34	0xbd4fa699	-0.05069599
35	0x3cd71d20	0.026259005
36	0xbc09418f	-0.008377447
37	0xbbd97bd9	-0.0066370782
38	0xbd9369f5	-0.07197944
39	0x3c9c3551	0.019068392
40	0x3cd98986	0.026554834
41	0xbcab4f9d	-0.020911986
42	0xbce472e0	-0.027886808
43	0xbdcfaa9a	-0.101399615
44	0x3de24452	0.11048187
45	0xbc95d2f6	-0.01828907
46	0x3e39046a	0.1806809
47	0x3c26d830	0.010183379
48	0xbbb1835f	-0.005417272
49	0xbd59bb14	-0.053156927
50	0x3d7cdee4	0.061736003
51	0xbd5afe8e	-0.05346542
52	0x3ce83f0f	0.028350381
53	0x3d7763f7	0.06039807
54	0x3dc390bc	0.0954909
55	0x3dca1074	0.098664194
56	0x3e67ced8	0.22637498
57	0x3db0b784	0.08628753
58	0x3d68e6e6	0.056860827
59	0x3e4efd5f	0.20213841
60	0x3da2e643	0.07954075
61	0xbd97d231	-0.07413138
62	0x3ebf6944	0.37385
63	0x3e353c0e	0.1769869
64	0xbcc3de3c	-0.02390968
65	0x3d99a250	0.07501662
66	0xbc88cfb2	-0.0167006
67	0x3e0481b0	0.12940097
68	0x3dbedce2	0.09319474
69	0xbcd1adc6	-0.025595557
70	0x3e90be59	0.28270224
71	0xbc8e1066	-0.017341804
72	0x3caa8f66	0.02082033
73	0x3dc723fd	0.09723661
74	0x3c90bc78	0.017667994
75	0xbdb244cc	-0.08704528
76	0x3d854c7b	0.06508728
77	0x3d231180	0.03981161
78	0xbdcf21b3	-0.101138495
79	0x3d1271e6	0.035753153
80	0x3e04e248	0.12976944
81	0x3ebd1fad	0.3693823
82	0xbce907fb	-0.028446188
83	0xbc9db733	-0.019252395

fc3.weight f4 [10, 84]
0	0x3d784dcd	0.06062107
1	0x3e832ae1	0.25618652
2	0x3eed8916	0.4639365
3	0xbe594c27	-0.21220456
4	0x3f9a18c1	1.2038804
5	0xbc1a3be2	-0.009413691
6	0xbd6748e0	-0.056465983
7	0x3f0f3712	0.55943406
8	0x3d6fe579	0.05856845
9	0xbd43859a	-0.047734834
10	0xbd8ec0e4	-0.06970385
11	0xbf1f4964	-0.6222136
12	0xbf3e9683	-0.7444841
13	0xbe956091	-0.29175237
14	0x3f113c80	0.5673294
15	0xbcc2cb65	-0.023778627
16	0x3d1f179a	0.038840868
17	0x3d5c7c51	0.053829495
18	0x3c9a14cc	0.018808745
19	0xbdb3678c	-0.087599844
20	0x3dc5d354	0.09659448
21	0xbeae4680	-0.34038162
22	0x3cc39f93	0.023879802
23	0x3f61d8e7	0.8822159
24	0xbcf091b3	-0.02936635
25	0xbd6a9bc0	-0.05727744
26	0x3ef490a0	0.4776659
27	0x3f410014	0.75390744
28	0x3e341ae0	0.17588377
29	0x3c66ad1f	0.014079361
30	0xbecbe6e0	-0.3982458
31	0xbd4552f1	-0.048174802
32	0x3b3dbd73	0.0028952032
33	0xbea20307	-0.31642935
34	0xbe0b181a	-0.13583413
35	0xbdbb023b	-0.09131285
36	0xbb29c862	-0.002590679
37	0xbdc79710	-0.0974561
38	0x3ced00ed	0.028931106
39	0x3d43f1ea	0.04783813
40	0xbee31da3	-0.4435855
41	0x3d2f9aba	0.042872168
42	0x3dd45c1d	0.10369132
43	0x3db55432	0.088539496
44	0xbeb5503c	-0.35412776
45	0xbe21256f	-0.15736936
46	0xbe5e1570	-0.21687865
47	0xbd34e4d9	-0.04416356
48	0xbd3f78bf	-0.04674601
49	0xbda66086	-0.08123879
50	0xbd337e7a	-0.04382179
51	0xbedc7d19	-0.43064192
52	0x3f06a810	0.52600193
53	0xbe0516f6	-0.1299704
54	0xbea78127	-0.32715723
55	0x3eefecbf	0.4686031
56	0x3f178115	0.5918134
57	0x3e5debea	0.21672025
58	0xbdd6de22	-0.10491587
59	0xbf3ff2ae	-0.74979675
60	0x3f2e1047	0.6799359
61	0xbd29f817	-0.041496363
62	0x3ec221f2	0.37916523
63	0x3eaa2003	0.33227548
64	0x3da39356	0.079870865
65	0x3f592f22	0.84837544
66	0x3da03c92	0.07824053
67	0x3f196f83	0.5993578
68	0x3d368019	0.044555757
69	0xbe28cbd2	-0.16484001
70	0x3eeb72da	0.45986062
71	0xbe23b26b	-0.1598603
72	0xbe5993b5	-0.21247752
73	0x3e474419	0.19459571
74	0x3ef57f3f	0.47948644
75	0xbe0b663a	-0.13613215
76	0xbed17dc3	-0.4091626
77	0xbf0eae19	-0.557344
78	0x3e06e433	0.13172989
79	0xbdb1b1ec	-0.08676514
80	0xbe84267f	-0.2581062
81	0x3f1926bf	0.59824747
82	0xbe1309a1	-0.14359142
83	0x3ed2321b	0.41053852
84	0x3e9422eb	0.2893289
85	0xbe191821	-0.1495061
86	0xbe51da2b	-0.2049338
87	0x3f58a075	0.8461984
88	0xbe698ac8	-0.22806847
89	0x3cdf0207	0.027222646
90	0xbc804c0d	-0.015661264
91	0x3ed1924c	0.40931928
92	0x3d9a6516	0.07538812
93	0x3e17c513	0.14821272
94	0xbd35b6c5	-0.044363756
95	0x3f53d98f	0.82753843
96	0x3f71b74f	0.9442033
97	0x3ed6eabe	0.4197597
98	0x3e82f0a3	0.25574216
99	0xbc34c9c1	-0.01103443
100	0x3c2e92f4	0.010655154
101	0xbdbd12f7	-0.09232133
102	0x3d3d86a4	0.04627098
103	0x3dcd4517	0.100229435
104	0x3c9a1c74	0.018812396
105	0x3e801dde	0.25022787
106	0xbd5b2b45	-0.053508062
107	0x3e720ac6	0.23636922
108	0x3dd87706	0.10569577
109	0xbdb0d38f	-0.086341016
110	0x3e720ab5	0.23636897
111	0x3f389d93	0.7211544
112	0xbd41a1c0	-0.047273397
113	0x3c87fb7d	0.016599411
114	0x3edbe8ff	0.429512
115	0xbc3fe320	-0.011711866
116	0xbdb70183	-0.08935835
117	0x3eb51b7b	0.35372528
118	0x3e14fd88	0.1454984
119	0x3dc257a4	0.094893724
120	0x3e16d0f0	0.14728141
121	0x3e479bb0	0.19492984
122	0xbda031ca	-0.078219965
123	0xbd293a96	-0.041315638
124	0x3eb57432	0.35440212
125	0xbce2d09f	-0.027687369
126	0x3daaa3cb	0.08332022
127	0xbd55ac14	-0.05216606
128	0x3eb39012	0.35070854
129	0x3de4ca29	0.111713715
130	0x3f7d2322	0.98881733
131	0xbdcc5a13	-0.09978118
132	0xbc9d82d9	-0.019227432
133	0x3e907f39	0.28222063
134	0xbdbd022b	-0.09228929
135	0x3e9931de	0.29920858
136	0xbe6900bc	-0.22754186
137	0x3d8def58	0.06930417
138	0x3e9cf1bc	0.3065318
139	0x3c949f13	0.018142259
140	0x3d84b64b	0.06480082
141	0x3e8166b3	0.25273666
142	0xbd5befe2	-0.053695567
143	0x3f7621b2	0.96145165
144	0xbecb4d7e	-0.3970756
145	0xbd9eb053	-0.07748475
146	0x3f700614	0.93759274
147	0x3ec320e3	0.38111028
148	0xbda903ea	-0.082527
149	0xbecc6523	-0.3992091
150	0xbd530468	-0.051517874
151	0xbe36fcaf	-0.17869829
152	0x3d9079da	0.07054491
153	0x3cf52937	0.02992688
154	0x3ef18c59	0.4717739
155	0x3e8af5ab	0.27140555
156	0x3dda7a55	0.10667864
157	0x3dcbffe6	0.09960918
158	0xbd0937e1	-0.033500556
159	0x3c4e8119	0.0126040215
160	0x3ef2ca15	0.474198
161	0x3f1a12a0	0.6018467
162	0xbdf881dd	-0.121341445
163	0x3d2e4223	0.04254354
164	0x3eae1549	0.34000614
165	0x3f49d480	0.78839874
166	0x3db0509d	0.08609126
167	0xbd87e3dd	-0.06635258
168	0xbe174b68	-0.14774859
169	0xbdd89cb4	-0.10576764
170	0xbdc30539	-0.095224805
171	0xbe3bec49	-0.18351854
172	0xbc97e3ea	-0.018541295
173	0x3d752e3d	0.05985855
174	0xbdb0ef3d	-0.08639381
175	0xbd2d94d0	-0.042378247
176	0xbdbbff2b	-0.09179529
177	0xbd875287	-0.06607538
178	0xbc098a84	-0.008394841
179	0xbdf091a8	-0.11746532
180	0x3d5aa3ef	0.053378996
181	0xbda835c1	-0.08213378
182	0xbc047b8d	-0.008086097
183	0x3a3fe447	0.0007320088
184	0x3d9c3601	0.07627488
185	0xbdb48ee1	-0.088163145
186	0xbd5f47f6	-0.054511987
187	0x3bfdf9ae	0.0077507114
188	0x3d107dfd	0.0352764
189	0xbdd8e4cd	-0.10590515
190	0x3c5f1f08	0.013618238
191	0xbdc47a6d	-0.09593663
192	0x3b70cf9d	0.003674484
193	0xbd42e7c6	-0.047584318
194	0xbdb82e15	-0.089931644
195	0xbdbd386d	-0.09239278
196	0x3dc4e073	0.09613123
197	0xbd8ae0c7	-0.06781154
198	0x3d7b93cd	0.06142025
199	0x3d71002f	0.058838066
200	0x3dab45bd	0.08362911
201	0xbd1132b4	-0.035448745
202	0xbc5f8755	-0.0136431055
203	0x3dca9095	0.09890858
204	0x3ce40639	0.027834998
205	0xbd2096d0	-0.039206326
206	0xbbf2eaa7	-0.0074132266
207	0xbad49ad0	-0.0016220454
208	0xbdc62448	-0.09674889
209	0x3db0e209	0.08636863
210	0x3db3d8c5	0.0878158
211	0x3d9d8a68	0.076924145
212	0xbbceafdd	-0.0063075856
213	0xbddf6145	-0.109072246
214	0xbdb6752c	-0.089090675
215	0x3c8f47f9	0.017490374
216	0xbdd9826f	-0.10620581
217	0x3ce385a1	0.02777368
218	0x3da5401a	0.08068867
219	0x3dcab7c5	0.098983325
220	0xbdb18b4d	-0.08669148
221	0x3c43fa61	0.01196155
222	0xbd85c473	-0.0653161
223	0xbdfce5de	-0.12348531
224	0xbda6b057	-0.08139103
225	0x3bfa718b	0.00764293
226	0x3b335128	0.0027361605
227	0x3b0cfb09	0.0021511933
228	0xbd6d6a7d	-0.057962883
229	0x3dde7118	0.10861415
230	0xbe31b270	-0.17353225
231	0xbd57bf99	-0.052672956
232	0xbd737dae	-0.05944603
233	0x3cfffacc	0.031247519
234	0x3d60f5d1	0.05492193
235	0xbc60e537	-0.013726524
236	0xbcc9de6c	-0.024642192
237	0xbd98fd47	-0.07470184
238	0xbe68c0c1	-0.2272978
239	0xbdb714ee	-0.08939539
240	0x3d950557	0.07276409
241	0xbc1ed73b	-0.00969487
242	0xbe06d5c7	-0.13167487
243	0x3c6465c7	0.013940281
244	0x3c26356b	0.010144572
245	0xbdc11673	-0.0942811
246	0x3d830f56	0.063994095
247	0x3cd95c69	0.026533322
248	0xbcb23dfb	-0.02175807
249	0xbdf73029	-0.12069733
250	0xbdd69a58	-0.104786575
251	0xbdc0f58d	-0.09421835
252	0x3d0fff7f	0.03515577
253	0xbdea1e8c	-0.114316076
254	0xbd8ac6a3	-0.06776168
255	0xbd939538	-0.072061956

fc3.bias f4 [10]
0	0x3f7d3cc0	0.9892082
1	0x3f17b75d	0.59264165
2	0xbe6917eb	-0.2276303
3	0xbe1ac70f	-0.15114997
4	0xbde11f4e	-0.10992299
5	0xbdf1afdf	-0.11801123
6	0xbe1ae8c0	-0.1512785
7	0xbe4e9018	-0.20172155
8	0xbe4e1806	-0.20126352
9	0xbddd4911	-0.10804952
